packages/line_detector/config/model_weights.pth (torch, 62341 bytes, 26 tensors)

in_layer.spatial_convolve.weight f4 [3, 1, 5, 5]
00000000: 7061 1dbe 83e1 fbbd 52f4 0c3e 9a82 f03d
00000010: 736a 563d 325b 2c3e c06e 883c 5a17 2cbe
00000020: c37d b4bd aaef 493e 9d87 f83d 1acf 493e
00000030: e713 b23c 4d18 6dbd 9ad5 c8bd f321 03bd
00000040: d324 0cbd 273c 073e 3af7 75bd 9a9d 063d
00000050: 5830 443e b7d6 133e d076 043e ada0 23bd
00000060: 60a2 3c3d efd9 303e 4d1d b03d 571d c23d
00000070: 67da 5e3c 67bd c73b 6dd7 1b3d b876 49be
00000080: 67d6 2ebb 2318 9b3d b060 883d 0f7f 2bbe
00000090: 4db0 38bd bdec 3abe 10d5 c43d 67c4 d2bd
000000a0: fddf ea3d 5764 f2bd 00cf 623d 2564 07be
000000b0: b391 7e3d 7a6d 3bbe bd49 bfbd e707 9ebd
000000c0: eb4a 043e 5585 2b3e a0ba 193e 4d6f 1fbe
000000d0: 1065 be3d 9ad2 dabc ffe1 3bbe c3c3 bcbd
000000e0: 4f33 163e 9fa7 45be 4d30 64bd 776e 13be
000000f0: da11 fb3d d373 2fbe 00df 88bc 1da3 d43d
00000100: 2036 103e 5a1e c2bd 1b58 1d3e 0d4e d73d
00000110: 3723 ff3d f0a0 4bbe 20cd 27be f8e0 2c3e
00000120: e0ee 06be fb83 49be c8db 273e
-0.153692 -0.12298872 0.13765076 0.1174366 0.05234761 0.16831663 0.016654372 -0.16805783
-0.0881305 0.19720331 0.12135241 0.19707909 0.021738006 -0.057884503 -0.09806366 -0.0320148
-0.034214806 0.1320654 -0.060050227 0.032865144 0.19159067 0.14437376 0.12935948 -0.039948154
0.04605329 0.17270635 0.08599339 0.094782524 0.013601876 0.0060955766 0.038047243 -0.19674194
-0.0026678087 0.07572963 0.06659067 -0.16747688 -0.04509001 -0.18254371 0.09610951 -0.10291367
0.114685036 -0.118355446 0.05537319 -0.13221796 0.06215067 -0.1830348 -0.09340236 -0.07716351
0.12919204 0.16750081 0.15012598 -0.15569802 0.0929662 -0.02671175 -0.1834793 -0.09217026
0.1466801 -0.19302224 -0.055710126 -0.14397608 0.12259264 -0.17134027 -0.016707897 0.10382674
0.14083147 -0.09478445 0.15365641 0.10512934 0.124578886 -0.19885612 -0.16386843 0.16882694
-0.13177061 -0.19679253 0.16392434

in_layer.spatial_convolve.bias f4 [3]
00000000: b0e4 eb3d d048 9f3d 837f a0bd
0.11518228 0.0777756 -0.07836821

in_layer.depthwise_convolve.weight f4 [64, 3, 1, 1]
00000000: d362 24ab dc5b 1533 f9d1 aeb5 7ade 95bc
00000010: 3d0f 4fbe 5984 aa3e 4167 a9b9 a61b 0080
00000020: 90bf 4c9e a7ec 15a7 7e71 df98 5bb4 0f0c
00000030: 46ed adbd 805f 183e 052f 6c3e 6cd5 70be
00000040: 1b5a c33e e017 47be 1b31 183f f7c1 c8be
00000050: 639d a7be 421d 0000 c870 7301 b8ca 3922
00000060: c240 d33e 03fa 003e cfc5 d93e 862c fbbe
00000070: fe85 b93d ac7c fb3e b0a5 4bbe adaa 743e
00000080: a8a0 983e 4522 bd9e 461a 0000 3ac7 1000
00000090: d071 a03d 23da fb3d c865 d03d f57d 04be
000000a0: 7268 a8be 00bb d13e 243e 5a88 49bb 91ba
000000b0: a855 f137 0950 333e f357 b23e bee5 54be
000000c0: 7bce 493d 70a8 c2bc 4635 c1be a617 dc3e
000000d0: 7366 0dbe 2dd8 e8bd 704c 753e 7d9a ad3d
000000e0: 468d b7be 306c a035 424c 05aa e8f3 97a1
000000f0: 675e 943d 863d ea3d eea5 7fbe 8abd d0bc
00000100: c64d 0e3e d1ce 8d3e 61cb b0ba a82c f485
00000110: 121c 0000 5750 623e 7b19 7f3d f18f 203e
00000120: 3423 1ebe 08d0 9c3e 05ac cd3e 7999 363d
00000130: 5e75 4d3d c898 993e c972 cf2e 3807 13ba
00000140: 6074 d894 5278 013e a4d2 b73e ba6d d7be
00000150: e422 0e3e 4188 183d 286d 663e 7f1a 9a3e
00000160: 97be 993e ba53 0cbf 48bd f83d aaae a83e
00000170: e5c7 00bf 2975 db3e e054 c4bb 28ed fdbe
00000180: 9a7c 24bc 3fbe 7abe 21a2 90be 0301 083e
00000190: 0d73 1a3e e029 fa3d a820 933e e623 c33d
000001a0: b8f2 cdbe 332c 92bb 8ed6 97bc 9f6c e5bc
000001b0: 6ec1 30be 9fe7 79bd 97e6 80bd e00a 683e
000001c0: c5fb 453d 04bc 903e 82c0 ceb4 5ddf 5f8e
000001d0: 4ae3 66b5 cff7 afbe b791 b5be 422c 9cbe
000001e0: a15a 21be 68d9 0ebe d3db c7be 3431 ea3d
000001f0: 701e a53e 94fa 92be 4d42 a5ba ca49 15ad
00000200: 8745 d835 09c6 4d3e cbf3 0abe fe03 dc3e
00000210: a0d3 4203 9121 b2b7 62f5 408b a826 cabe
00000220: a43f 743e 5621 9b3e 3da8 5bbc 3b2f 94be
00000230: 749b ce3e 2086 ff3e 5ecb fb3e 4da9 20bf
00000240: c1bd 013d 518c d8bd 12b9 fb3e 74dc 6b3d
00000250: f641 393d dec8 01be 631b 0000 2b6f 24b8
00000260: 0b0a c3b6 95cd a9bd bd16 ab3e 3830 f8bd
00000270: 5330 04bf aa6e ef3e 49b4 bfbd c17f 8abe
00000280: 07b9 ae3d 1f71 063e 2473 2907 6f42 40b9
00000290: 0596 1cae 1645 37bd 497d e73e a2f5 79be
000002a0: 5225 0081 8577 dab0 e457 918f dd98 a8bc
000002b0: f0b7 fe3a 3bc2 733d 2df8 92bd 5eb1 8fbe
000002c0: 4c1c 853e 58c4 8b3e 9b8d 37be 0c25 13be
000002d0: f09b 23be 5e7f 893e 1496 c83c 26ea adbd
000002e0: bef5 463e 5be5 4e3e 874d 673e 1e4c 8f3e
000002f0: b543 b63e 9c4a 9a3e b79b 96be 049d 42bd
-5.840165e-13 3.477531e-08 -1.302512e-06 -0.018294562 -0.20220657 0.33304098 -0.00032311122 -9.918e-42
-1.0839284e-20 -2.0806193e-15 -5.7758747e-24 1.1070593e-31 -0.08492522 0.1488018 0.23064812 -0.23518914
0.38154683 -0.19442701 0.5944993 -0.39210483 -0.32737264 1.0496e-41 4.4712968e-38 2.5179494e-18
0.41260344 0.12595372 0.42533728 -0.49057406 0.0905876 0.49118555 -0.19887424 0.23893233
0.2981007 -2.0025327e-20 9.425e-42 1.540837e-39 0.07834208 0.12297466 0.10175663 -0.12938674
-0.32892185 0.40962982 -6.5675035e-34 -0.0011118437 2.8769326e-05 0.17511 0.34832725 -0.20790765
0.04926918 -0.023761958 -0.37735957 0.42986792 -0.13808613 -0.11369357 0.2395494 0.08476732
-0.3584997 1.1952416e-06 -1.183923e-13 -1.0296719e-18 0.07244568 0.11437516 -0.24965641 -0.025481004
0.13896856 0.2769685 -0.0013488346 -2.2962054e-35 1.007e-41 0.2210096 0.06228016 0.1567991
-0.15443116 0.30627465 0.40170303 0.044579957 0.05016076 0.29999375 9.43366e-11 -0.00056086807
-2.1856328e-26 0.12643555 0.35902894 -0.42075902 0.13880497 0.037239317 0.22502577 0.3009834
0.3002822 -0.54815257 0.121454775 0.32945758 -0.50305015 0.42862824 -0.005991563 -0.49594998
-0.010039473 -0.24486636 -0.28248695 0.13281636 0.15082951 0.12215018 0.28735852 0.095283315
-0.40224242 -0.0044608354 -0.018534925 -0.028005896 -0.17261288 -0.061011907 -0.062939815 0.22660398
0.04833581 0.28268445 -3.8510558e-07 -2.7594418e-30 -8.6012426e-07 -0.3436875 -0.35462734 -0.30502516
-0.15757228 -0.13950121 -0.390349 0.11435166 0.32249784 -0.287068 -0.001260826 -8.486054e-12
1.6113489e-06 0.20095076 -0.13569562 0.42971796 5.725441e-37 -2.1234884e-05 -3.716246e-32 -0.39482617
0.23852402 0.3029887 -0.01340681 -0.28942284 0.40352976 0.49907017 0.49178594 -0.6275833
0.031675104 -0.10573638 0.49164635 0.057583287 0.04522892 -0.12674281 9.825e-42 -3.920418e-05
-5.812622e-06 -0.08291165 0.33415785 -0.12118572 -0.51636237 0.46764117 -0.093605585 -0.27050593
0.08531385 0.1312909 1.2747984e-34 -0.00018335295 -3.5603537e-11 -0.04474362 0.45212772 -0.24410108
-2.3536663e-38 -1.5895557e-09 -1.4331958e-29 -0.020580703 0.001943348 0.059511404 -0.07176242 -0.28065008
0.2599815 0.27298236 -0.17925112 -0.14369601 -0.15977454 0.26854986 0.024485625 -0.08491926
0.1942968 0.2020468 0.22588168 0.2798776 0.3559853 0.30135047 -0.29415676 -0.047513023

in_layer.depthwise_convolve.bias f4 [64]
00000000: 6465 7eb5 a715 933d 4b2d b3b9 6881 8db8
00000010: 78ca f0bd 3f4a bcbc 403b 363e f65d 44b8
00000020: 830d c6be f9f8 413e 2437 56be 4d93 08b0
00000030: 23f4 d83a c341 473e af40 88ba 144f e0bd
00000040: bd60 7f3e e68e f43c 9c6d 51bc ac9b 2cb7
00000050: 4ab3 b43d 3a22 533b beb4 9daf e1d7 b1be
00000060: ae1f 71be 19cd 113c c8fa 83af d653 593d
00000070: bcc9 473a ff46 f7bc 2e1e 893d 3239 66bc
00000080: a275 5d3e 3c5c 13be 8a2e 46bd 02cf 6b3d
00000090: 4e4a 3d3c 1fd5 7cbe fb67 deba 31e9 0e3f
000000a0: dc05 a23e 9cdc 2cbc 5d88 aab8 0aea 5e3c
000000b0: e278 46b9 9405 99bd 9097 ed3d 9df6 a7be
000000c0: 33f5 81be 9c7f 0b3e a7f5 d2b4 15be 0c3c
000000d0: bcff 203e 2372 f23d 6574 89b9 d31a cd3c
000000e0: 7992 d1b6 3f90 573c d789 443e 36ec d73d
000000f0: 3ee3 24be 28a7 07be 1368 a4be 5b9d 9fbc
-9.4769916e-07 0.07181864 -0.00034175286 -6.747508e-05 -0.11757368 -0.022984622 0.1779604 -4.681755e-05
-0.38682184 0.18942632 -0.20919472 -4.968584e-10 0.0016552251 0.1945868 -0.0010395254 -0.10952583
0.24939246 0.029853296 -0.012782481 -1.0288244e-05 0.08823259 0.0032216446 -2.868656e-10 -0.34735015
-0.23547241 0.008898997 -2.4006952e-10 0.053058468 0.00076213083 -0.03018522 0.066952094 -0.014051722
0.21626905 -0.14390653 -0.048384227 0.057570465 0.01155336 -0.24690674 -0.0016968244 0.5582457
0.31645095 -0.010550644 -8.131631e-05 0.013605604 -0.00018927784 -0.07471767 0.11601174 -0.32805339
-0.25382385 0.13622898 -3.9294284e-07 0.008590241 0.15722555 0.11838176 -0.00026217397 0.025037205
-6.245737e-06 0.01315695 0.19193207 0.105431005 -0.16102311 -0.13247359 -0.32110652 -0.019484213

in_layer.batch_norm.weight f4 [64]
00000000: 0857 a93d a2b7 623f 0857 a93d 0857 a93d
00000010: 395a 5f3f f756 353f acc8 693f 0857 a93d
00000020: c469 5f3f 8140 6b3f 793d 5c3f 0857 a93d
00000030: fa09 563f a38a 703f 0857 a93d 06c0 613f
00000040: 2f17 383f fe3c 593f 464e 6d3f 0857 a93d
00000050: 8023 723f 64f6 553f 0857 a93d df79 703f
00000060: f1a8 583f 9350 513f 0857 a93d 9027 563f
00000070: e22c 573f 6c8f 623f 5de6 533f 415a 683f
00000080: 8187 2b3f 0755 553f 2042 8a3f b8db 483f
00000090: b878 f23e 652b 5f3f 0857 a93d d7ca 433f
000000a0: dd1e 3b3f e365 553f 0857 a93d 4421 503f
000000b0: 0857 a93d 8951 573f dad7 523f a5f9 543f
000000c0: 97ee 733f f509 5a3f 0857 a93d 3ca0 553f
000000d0: d546 3c3f dc41 3f3f 0857 a93d dc8c 5d3f
000000e0: 0857 a93d fe61 d13d bf30 573f 9999 5c3f
000000f0: 82f9 c13d 0dce 5f3f ace4 5c3f 1849 d23e
0.08268553 0.8856145 0.08268553 0.08268553 0.87247044 0.7083582 0.91321826 0.08268553
0.8727076 0.918953 0.860313 0.08268553 0.83608973 0.9396154 0.08268553 0.8818363
0.71910375 0.8485869 0.9269756 0.08268553 0.9458542 0.8357909 0.08268553 0.9393596
0.84632784 0.8176357 0.08268553 0.8365412 0.8405286 0.88500094 0.8277338 0.90762717
0.6700364 0.83332866 1.080143 0.78460264 0.47357726 0.8717559 0.08268553 0.76481384
0.7309397 0.8335859 0.08268553 0.8130076 0.08268553 0.8410879 0.82360613 0.8319343
0.95285934 0.85171443 0.08268553 0.83447623 0.7354558 0.7470987 0.08268553 0.8654306
0.08268553 0.10223769 0.84058756 0.8617187 0.09471418 0.87423784 0.86286426 0.4107139

in_layer.batch_norm.bias f4 [64]
00000000: b192 11bb 6982 5dbd adf3 723d 357a d03c
00000010: eeb8 07bd faac 88bc 788d 7cbd 1a1b 39bd
00000020: c191 f5bc e09d 273e e47a 773d 00a4 46bb
00000030: f0de 8fbd f9cd 373e c43e 6d3a 4185 8ebd
00000040: 2808 ea3c 5c0c b1bd ffbf ddbd 22b3 323b
00000050: 77f3 0bbe 36e6 ebbd cc12 16bc 6a81 a13d
00000060: 3670 5abc 0e94 b1bd c525 573d 134e 3fbe
00000070: 5159 09be ccfe 25be 7020 a1be 40c3 44be
00000080: 931e 633c 76b2 ffbc d8f6 11bd e19d 823d
00000090: 4b2d 463d c0dc 8fbd c667 08b2 06ae f73c
000000a0: 9890 aa3d 5253 f1bd 2bec 3fbd da6b 01be
000000b0: 9542 dc38 a62b 90bd 3486 0e3d 4df6 cc3c
000000c0: 7f98 793d f9e2 893d 30e6 66b9 dbb8 bcbd
000000d0: db25 813d 35cf 7f3d 37ae 63bd a466 16be
000000e0: 84fc b5bc 328e 05bd a47f 143e d593 a7bd
000000f0: 47fa 813c f80f 97bd 5892 63bd 429d 29b9
-0.002221268 -0.054079447 0.05931442 0.025448898 -0.033135347 -0.016684044 -0.061658353 -0.04519186
-0.029976727 0.16368818 0.060419932 -0.0030310154 -0.07024944 0.17949666 0.00090501853 -0.0695901
0.028568342 -0.086449355 -0.10827636 0.0027267416 -0.13667093 -0.115185186 -0.009159755 0.07886012
-0.013332417 -0.08670817 0.052526254 -0.18682127 -0.13412978 -0.16210479 -0.3147006 -0.19215107
0.01386227 -0.031213026 -0.0356358 0.06377769 0.04838304 -0.070245266 -7.939837e-09 0.030234348
0.0832836 -0.1178347 -0.046856087 -0.12638798 0.00010502819 -0.07039575 0.034795955 0.02501979
0.060936447 0.06732745 -0.00022020261 -0.09214946 0.063060485 0.062453467 -0.055586066 -0.14687592
-0.022215135 -0.03260631 0.14501816 -0.081824936 0.015866412 -0.07376093 -0.055559486 -0.00016175679

in_layer.batch_norm.running_mean f4 [64]
00000000: 0000 0000 001e e83d 0000 0000 0000 0000
00000010: 7e34 913c 7e78 0f3a a799 093e 0000 0000
00000020: 69b8 6b3d 6f11 623e af3b c93b 0000 0000
00000030: e0de e93d 95f8 333e 0000 0000 314e e33c
00000040: e4c4 fb3d 5b76 c83d 6073 253b 0000 0000
00000050: f2ec 853d 181b 173e 0000 0000 5960 e43a
00000060: 78c7 f03c b7e4 1e3e 0000 0000 81da 9e3d
00000070: 6456 193e 4f05 173c 4c1d 4a3d a73d 4f3b
00000080: 4c68 493d 6b14 013d cfc9 ca3a e64d 1e3d
00000090: 272b c838 c1e4 d93c 0000 0000 fc72 573e
000000a0: fa6a bb3d 7fa7 3e3d 0000 0000 6a38 4a3e
000000b0: 0000 0000 a8e7 de3b 6b79 1c3e 9dea 183b
000000c0: b356 063c 4316 033e 0000 0000 4c1a 683d
000000d0: 5e11 d23d ae5f c73d 0000 0000 bfa2 af3d
000000e0: 0000 0000 9c4c ee3c 0e2e 213e 94fe b33d
000000f0: 8372 8435 2bf5 853c a35e 763d 5b74 ba39
0.0 0.11333847 0.0 0.0 0.017725226 0.0005472972 0.1343752 0.0
0.057548914 0.22076963 0.006141148 0.0 0.11419463 0.17575295 0.0 0.027747246
0.12293413 0.097881995 0.002524577 0.0 0.06539334 0.14756429 0.0 0.0017423733
0.02939199 0.15516935 0.0 0.0775652 0.14974362 0.009217574 0.049344346 0.003162244
0.04917173 0.031513613 0.0015471521 0.03864851 9.544781e-05 0.026598336 0.0 0.21039957
0.091512635 0.046546455 0.0 0.19748083 0.0 0.006802518 0.15280692 0.00233332
0.008199382 0.12801461 0.0 0.056665704 0.10257219 0.09735046 0.0 0.08575963
0.0 0.029089265 0.15740225 0.08788791 9.868094e-07 0.016352257 0.060148846 0.00035563376

in_layer.batch_norm.running_var f4 [64]
00000000: 0400 0000 e809 5e3a 0400 0000 0400 0000
00000010: 898b b33a 8b26 e337 d067 d93a 0400 0000
00000020: f8ba 663c 3035 c43a e350 f139 0400 0000
00000030: deb0 543b 65c5 5d3a 0400 0000 aa41 113b
00000040: d257 713b 748f bd3a a5fc 5539 0400 0000
00000050: e9ec cd39 75a9 b53b 0400 0000 576b d638
00000060: 70ff 8b3b 24a5 b93b 0400 0000 95a3 8f3a
00000070: 1293 bb3b 4004 663a 36c3 983a c1d0 b739
00000080: e221 383b 6623 4d3b 130d 3039 180d c438
00000090: 909f 5835 4df3 743b 0400 0000 2158 9e3c
000000a0: b05c ca3b e925 a63a 0400 0000 f426 143c
000000b0: 0400 0000 5473 9b39 d6ab 823a 3372 dd39
000000c0: c669 483a 0cdc b638 0400 0000 ad91 5c3a
000000d0: df0b ab3a 42d3 9139 0400 0000 21eb c73a
000000e0: 0400 0000 2d89 9d38 eb22 353a 176e a739
000000f0: 84bf b032 798b ae3a 3a6a 553c ae37 1837
6e-45 0.0008470104 6e-45 6e-45 0.0013698201 2.7078457e-05 0.0016586725 6e-45
0.014082663 0.0014969464 0.00046027367 6e-45 0.0032454054 0.0008459895 6e-45 0.0022164383
0.0036826027 0.0014462308 0.0002040738 6e-45 0.0003927716 0.0055438825 6e-45 0.00010224309
0.004272394 0.0056654382 6e-45 0.0010958785 0.0057243193 0.0008774437 0.0011654857 0.00035060014
0.0028096368 0.0031301617 0.00016789538 9.348447e-05 8.0698464e-07 0.0037376464 6e-45 0.019329133
0.0061756 0.0012676093 6e-45 0.00904249 6e-45 0.0002964983 0.0009969424 0.0004223749
0.0007645156 8.719423e-05 6e-45 0.00084140414 0.0013049803 0.00027813955 6e-45 0.0015252569
6e-45 7.5118944e-05 0.0006909805 0.00031934745 2.0576188e-08 0.0013316713 0.013025815 9.07287e-06

basic_layers.0.spatial_convolve.weight f4 [64, 1, 5, 5]
00000000: 9fa8 12be 7ade 953d 3041 96bd 4d6b f0bd
00000010: e303 a7bd 6384 ca3d af2e 2e3e 78d1 0c3e
00000020: eb80 08be d8a0 1cbe 1a12 9bbc 231c dabd
00000030: e7c5 633c 2739 fdbc 2338 123e 738f 91bc
00000040: 735b f73d 80c6 f3bd e7d6 f03d bd14 c6bd
00000050: 2011 013d 3a56 16be 1853 01be 07af 223d
00000060: 8708 0d3e e830 37be ff49 4c3e b7ab bd3d
00000070: e782 5dbd e3cb 25be a773 45be 1d9f f0bd
00000080: caa5 3bbe 92b1 1e3e a399 fdbd 1339 cabd
00000090: e747 25bc 07d3 f7bd 7ae9 7ebd bb7d 23be
000000a0: 3093 833d 27ae 643d 7aff be3d 5d7a 22be
000000b0: 4dd8 35bc 8771 4bbd 57c7 233e c790 ad3d
000000c0: 3010 363e e74e c0bd b0cf a1bd 1334 73bd
000000d0: 9754 883d e8f2 42be 60f4 0cbd c00d bf3d
000000e0: d3b2 3fbe d893 453e 6039 7abd 1389 a3bd
000000f0: d746 a93d 2015 0bbd ca0b dd3d 0756 fc3d
00000100: eb40 01be b243 3fbe 0d7e 153e b30f 6e3c
00000110: 90ce ce3d 1a19 313c 90f2 b1bd 47d5 9bbd
00000120: ea97 d8bd 1b63 3c3e 67d9 a5bc 17dd 3f3e
00000130: a759 a3bd ba05 403e 00db 243c 80a1 283e
00000140: 8713 6cbd 0d45 d03c 2ab4 b23d 9a53 853b
00000150: 4013 33be 5a0d b63c 9a4c 8f3c 9782 b2bd
00000160: fd8c ebbd e764 ddbd 47b1 573d 30cb f13d
00000170: fb05 273e 4739 1b3d ca03 f83d 4779 613d
00000180: 40aa 05be 23ed ba3d dfd5 16be 07f6 623d
00000190: 9ad0 d93d 8761 e43d 989c 1bbe cb7f 07be
000001a0: 538d 783d 1312 2cbd 2741 ea3c 67b4 b93d
000001b0: 7a09 2fbd 7749 dbbd 8dec adbc 3a9f 073e
000001c0: 73c5 bf3c f5c0 043e 3323 353a 5334 54bd
000001d0: 5bdf 053e 6586 403e 90ea e13d 0d61 cb3d
000001e0: d0bb 02be 4d8b a8bd 0087 753d 0070 f6bb
000001f0: cff5 173e 2f91 2bbe 0019 56bd 0d85 b93c
00000200: 0a1c 99bd 90c2 b33d 8a98 40be cd0d 00bc
00000210: e7ed 273e f0fd e73d 73d3 283d c0a2 a2bc
00000220: 9015 8b3d c709 0b3d 8a71 353e 8de6 693d
00000230: d3ae 65bd 8d6a ee3d 1726 b73d e3bb 223e
00000240: a731 dc3d f5a3 323e d7ba ce3d cab8 1d3e
00000250: e74e 5ebc a0f6 88bd b722 8c3d e046 d2bd
00000260: 1a24 6dbd 6f49 28be 902e a93d 1aa6 1dbd
00000270: 5799 debd 006e abbb 774f b53d e34e bd3d
00000280: fac1 233e 5b5e 423e 9543 413e f375 1b3e
00000290: a00f 403d 83ba 43be 9a52 01be a3fb e3bd
000002a0: 47fc 413e 13af e23d b8f5 14be 7de0 923d
000002b0: 8b5f 35be 90dc e73d ede4 05be 80fd 36bd
000002c0: bd78 4b3e 3a9c ddbd 4db9 11bd d3f3 02be
000002d0: 33e5 cfbb 6ae0 323e 0d55 88bd 55be 2c3e
000002e0: 5a1f aa3c 1a9d 813c c0b8 d13c 3391 60bc
000002f0: b88c 16be 5375 13be e7a8 eabc ff97 40be
00000300: 50b0 abbd 1a2d 5bbc 8079 fabd c5bd 0bbe
00000310: 92ac 0dbe adb1 2d3d c0ad 993d d3c5 b6bd
00000320: d328 65bd d30b 303d 8341 ee3d e067 ed3d
00000330: fd7c b0bd d763 923d 9ac4 4fbd bb06 0f3e
00000340: 8da1 83bc ad6f 473e 83fa b9bd a7ff 443d
00000350: 4d3b 63bc 1d29 143e 07ed b3bd 8d43 f4bc
00000360: 4d39 06bd da77 403d 871a 7dbd 2577 1d3e
00000370: 4a79 cbbd cfbf 1a3e 97c7 ae3d cd8d 0bbe
00000380: 8022 78bc a01f 36be fd17 093e 070a 803d
00000390: 384d 08be 2d08 2f3e b0f5 803d e3ea de3d
000003a0: 0d4b d33c 076d 9a3d b365 0b3c 4df7 e33c
000003b0: e5f0 1abe df77 3ebe c0de d83d 689e 063e
000003c0: 3aec 4a3d b3d0 9ebd 9aac dcbd 0bb5 023e
000003d0: 9387 7b3d 8afc 8d3d b049 053e 1add 87bc
000003e0: bd38 f2bd 587d 2c3e b5b3 43be da52 02bd
000003f0: 1aea 373d eaa3 e53d edba 943d 6f58 223e
-0.14322136 0.07317825 -0.07336652 -0.11739216 -0.08155038 0.09888532 0.17009996 0.13751781
-0.13330428 -0.15295732 -0.01892953 -0.10649898 0.013902164 -0.030911041 0.14279227 -0.017768597
0.120779894 -0.11903095 0.11759739 -0.09671924 0.031510472 -0.1468133 -0.12629354 0.0397177
0.13772784 -0.1788975 0.19950102 0.09261268 -0.054079916 -0.16191058 -0.19282399 -0.117490984
-0.18324962 0.15497425 -0.123828195 -0.09874167 -0.010087944 -0.12100797 -0.06223438 -0.15965931
0.06424558 0.055830147 0.09326072 -0.1586699 -0.011098933 -0.049668815 0.15994011 0.0847488
0.17779613 -0.093900494 -0.07900941 -0.059375834 0.06656759 -0.19037974 -0.03441274 0.093287945
-0.1872056 0.19294679 -0.061089873 -0.07985129 0.08265465 -0.033955693 0.10793264 0.12321096
-0.1262242 -0.18678167 0.14598866 0.01453011 0.100979924 0.010809207 -0.08688843 -0.07609039
-0.1057585 0.1839718 -0.020245267 0.18736683 -0.07976084 0.18752185 0.010061979 0.16467857
-0.05763581 0.025423551 0.0872577 0.004068804 -0.17487812 0.022223163 0.017492581 -0.08716314
-0.11501501 -0.10810261 0.0526593 0.11806333 0.16310875 0.03789642 0.12110098 0.0550473
-0.13053226 0.091272615 -0.14730023 0.05541041 0.10635491 0.11151414 -0.15196455 -0.13232343
0.060681652 -0.042009424 0.02859552 0.09067612 -0.042733647 -0.10707372 -0.02123096 0.13244334
0.02340958 0.12964232 0.0006909847 -0.051807713 0.13073485 0.18801267 0.11031067 0.0993062
-0.12766957 -0.082296945 0.0599432 -0.0075206757 0.14839862 -0.16754602 -0.052269936 0.022646451
-0.07476051 0.08777344 -0.18808189 -0.00781579 0.16399346 0.113277316 0.04121728 -0.019852996
0.06791222 0.03394487 0.17719093 0.057104636 -0.05607493 0.11641417 0.08942812 0.15891986
0.10751658 0.17445357 0.100942306 0.15402523 -0.0135686165 -0.06687665 0.06842559 -0.102674246
-0.057895757 -0.16434263 0.08260834 -0.038488485 -0.10869091 -0.005231619 0.08853047 0.09243562
0.15991965 0.18981306 0.18873437 0.15181713 0.0468899 -0.19114117 -0.12629166 -0.1113198
0.18943892 0.11068549 -0.1454686 0.07171724 -0.17712228 0.11321366 -0.1307561 -0.04467535
0.19870277 -0.108208135 -0.035577107 -0.12788324 -0.0063444613 0.1746842 -0.06656847 0.16869481
0.020766903 0.015821982 0.025600791 -0.013706493 -0.14702117 -0.14400224 -0.028644992 -0.18807982
-0.08383238 -0.013377452 -0.122302055 -0.1364661 -0.13835362 0.042405773 0.07503843 -0.08924451
-0.055947136 0.042980026 0.11633589 0.11592078 -0.086175896 0.07147949 -0.050724603 0.13967411
-0.016068244 0.19476195 -0.090809844 0.04809537 -0.013869119 0.14468808 -0.08785444 -0.029817367
-0.03276949 0.0469893 -0.061792877 0.15377481 -0.099352434 0.15112232 0.085341625 -0.13628311
-0.015144944 -0.17785501 0.13388057 0.062519126 -0.13310707 0.17092963 0.06296861 0.10884645
0.025792623 0.075403266 0.008508134 0.027827883 -0.15130956 -0.18600415 0.10589361 0.13146365
0.04954169 -0.0775465 -0.10775109 0.12764375 0.06140859 0.06932934 0.13016391 -0.016584922
-0.11827228 0.1684469 -0.19111522 -0.031817295 0.04490099 0.11212905 0.07262216 0.15854047

basic_layers.0.spatial_convolve.bias f4 [64]
00000000: 85af 3ebe 00b0 133d 2785 9ebd 7779 113e
00000010: 6756 a739 484e 4bbe a37a 4abe b396 85bd
00000020: 2de3 6d3d fab3 d83d 7326 b73c 9b9f 453e
00000030: 6735 1cbc 67ab 85bd 4088 1f3e 4070 1bbe
00000040: 5dc8 e1bd c0f3 ab3c 6316 8b3d 7da2 9bbd
00000050: 5d25 213e 4d5a c93c 5aca 2cbd c53d 28be
00000060: 62f3 28be e78e 04be b37c 9b3c 87cc 2fbd
00000070: 33a9 a6bb 1a8f 0b3c f0b4 4bbe 0d0b 373d
00000080: 67d9 35be 3a15 06be c397 863d e79e c13c
00000090: c09a f53d 87d3 c4bd c796 823d 4083 253d
000000a0: 9aaf 3d3d 2b07 4bbe 006c ec3c 0a9b 91bd
000000b0: 0dc0 a4bc 67b8 0cbd ca24 debd b356 4cbd
000000c0: 9048 2d3e 404e b2bd 5a58 37bd 6317 0c3e
000000d0: 9747 a0bd 3318 8abd 131e fc3d 4a60 ba3d
000000e0: 5b6b 193e da61 0cbd f527 293e 53c8 983d
000000f0: 63e1 d93d cd65 2c3d bdc3 a8bd 30b5 94bd
-0.18621643 0.03605652 -0.077402405 0.14206491 0.00031917097 -0.1985408 -0.19773345 -0.06522884
0.05807798 0.10581203 0.022357201 0.19299166 -0.0095342165 -0.06526833 0.15579319 -0.15179539
-0.110245444 0.020990252 0.06791379 -0.075993516 0.15736909 0.024579192 -0.042185165 -0.16429813
-0.16499093 -0.12945138 0.01898036 -0.04291966 -0.005086088 0.008518005 -0.19893241 0.044688273
-0.17758714 -0.13094035 0.06571915 0.02363534 0.11992407 -0.09610658 0.06376415 0.040408373
0.046310045 -0.19826953 0.028860092 -0.071096495 -0.020111108 -0.034355547 -0.10846861 -0.04988737
0.16922212 -0.08706331 -0.044761993 0.13680796 -0.07826155 -0.06742897 0.12310424 0.09100397
0.14982359 -0.034273006 0.16519149 0.07460084 0.10638692 0.042089272 -0.08240459 -0.07261121

basic_layers.0.depthwise_convolve.weight f4 [64, 64, 1, 1]
00000000: fc86 abba cd8c a2bd e995 083d 0ac3 403c
00000010: 5973 55bd a7eb 4c3d 637e 4a3d 6848 bbbb
00000020: df40 3fbd 3979 313c d3e4 3a3c 9994 63bb
00000030: 60e4 9abd 4355 dcbd 73a2 7d3a 636c 013e
00000040: 7577 8fbd d3a8 383d 27e2 ef3c 344c 2e3b
00000050: 026c ddbb 4ef9 57bc 76d3 abbb 9f0f 0cbd
00000060: 516b 313c b607 49ba edb5 7f3b ebc9 023e
00000070: 3799 9dbc e3c0 043e 004d 573d 478f 823d
00000080: 4465 b73c 5378 ed3d b6a4 733d 018a 2ebc
00000090: 59a9 e5bc 6ad5 993d c744 0bb2 0567 ce3c
000000a0: ac72 e6bc 992b f93d b2fa e9bc 1856 aebd
000000b0: 6de6 b338 0ce8 c8bd 65c8 c23c 0b4a 12bd
000000c0: 5a3b a13c 8819 623d bbfe 2fb9 9d44 8abb
000000d0: a02a 103d 6007 72bd 9337 24bc 6b21 c23d
000000e0: dd8e 27bc 0d76 a5bc c8b8 3fbd 9e9a 043d
000000f0: cc8e 353c 4db9 953c f497 ac3d 576f 9f3d
00000100: 77a3 89ba cdef 86bd 8bc3 c03a bb66 46bc
00000110: 4f24 70bd 5628 ae3d 6aa1 743d ef19 b23b
00000120: da1d 2abd 0984 bf3d 33d2 b63c 4f2b 9eba
00000130: 7b14 983d f6f9 46bd e5a4 85b9 1f70 613d
00000140: 6a1e 07bd fde0 c73d d3ff 9a3d 8608 8d3a
00000150: 1833 223e 116f a03c 7a99 0b3b 3b2c 63bd
00000160: 7644 b3bc 6936 3e3d 3455 ff3c 00d7 313e
00000170: 0640 cfbc deac f3bc fe76 203e ce8a 04bc
00000180: 0972 4b3d 2556 473d b3f1 633c be89 a03d
00000190: a070 21bd b0e4 75bd 6a74 c031 49ba 193d
000001a0: 9be6 dbbd 386f 213d 9d8d 3ebc 1755 613d
000001b0: 60cd 7f38 dc6e bd3c 9c64 263d 5177 b93d
000001c0: 5bfd 01be 36f5 2b3d 9269 a5b8 f7d2 8abd
000001d0: 4193 87bd aeae 68bd 7578 66bd 33f5 923b
000001e0: f254 1fbc 4fcf 06bd 7101 693d 6094 7f3d
000001f0: 4c6b 0d3c 879b 5cbd 2f2b 8d3d ffe9 e53c
00000200: 3160 e1b9 d6ef c8bd 0c92 5e3c 87a6 ac3b
00000210: d0af 0f3d fc92 7dbb 2d2a 13bd 99b6 d4bb
00000220: 591d b23c 843d 03be c0f5 8abc d184 2ebb
00000230: 11ae 883d 2ee0 f4bc 165c 2a3a 6cf7 b23c
00000240: 5be2 2abd b2a7 c23c cd11 133e fd6a 063b
00000250: 801d b7bb b5b0 f13d abbd edba 6530 bb3d
00000260: e3ab c0bd 5f20 bebd 5c4a c23c 63ac 23bc
00000270: 55e9 05bd 2b78 9f3d 3329 c3bc 8b2f 0fbd
00000280: 826d 0cbc 3919 f43c 71e4 ac3d 8895 16bc
00000290: e0d3 173d ab50 a2bd cb9b e12f 26e6 24bd
000002a0: cc20 14bc bdc9 aa3d 45c2 2bbc 9524 bd3d
000002b0: 6f14 ed38 68d9 703d 4bec 3abd 1a3a 083e
000002c0: 0377 aa3d 4609 c23d a290 70b9 121b d63b
000002d0: 12d4 00bd fd7a 17bd 3d06 13bc 9892 54bc
000002e0: d572 01bc 9a88 6e3c 3806 a8bd f629 8ebd
000002f0: 1e6f 1a3c 053c 023d 83d4 c33d 1ada 0f3c
00000300: b3ba edb9 d864 d73d 144d cc3c 5380 553c
00000310: 95e8 1d3e 8bd1 c23c ec0a 96bd f272 a4bc
00000320: a374 ebbb 330e a53d 3a0e 433d afec f2ba
00000330: 2150 033e a938 b9bd 0293 0d3a 6397 55bd
00000340: 0641 88bd a579 5c3d e6a2 03be f1a6 b13a
00000350: 9b40 96bd ad26 123e 29a2 c2bb 86e5 b03d
00000360: 50db 85bc 89f1 113d f3e8 8d3c 8494 aa3c
00000370: c80a c63d 565f abbd 9526 74bd 21c0 66bb
00000380: 99fe 323d c0b6 3b3e a962 773d cb73 343d
00000390: 6f4f e23c 5b59 8ebd 65fc fc30 6a81 0d3d
000003a0: 85a1 b3bd 5154 20bd 52a3 8bbc 6932 51bd
000003b0: 9455 9437 f82a 90bd b1bb 0c3d 26c7 863d
000003c0: 9a5a 093e 21ab 65bd 2695 e436 a8ad 71bd
000003d0: 911e ddbb 3ff7 3ebd ae90 daba 7fe7 e53d
000003e0: 74e0 fbba 8069 c93c 9c45 f5bd 4db5 343d
000003f0: 63de 2b3c 8e8c 003d 0697 c53d 9e47 09bc
-0.0013086493 -0.07937012 0.03334609 0.011765251 -0.052111957 0.050029423 0.049436938 -0.0057154186
-0.046692725 0.010832124 0.011407095 -0.0034726022 -0.0756309 -0.1075845 0.0009675391 0.12639003
-0.070052065 0.04508288 0.029282643 0.0026595714 -0.0067572603 -0.013181997 -0.005243714 -0.034194585
0.010828809 -0.00076686905 0.0039018348 0.12772338 -0.019238098 0.12964205 0.052563667 0.06374984
0.022387154 0.11595216 0.059483252 -0.01065302 -0.028034853 0.075114086 -8.106503e-09 0.025195608
-0.028130852 0.12166519 -0.028561924 -0.08512515 8.578305e-05 -0.098098844 0.023777196 -0.035715144
0.019681621 0.05520013 -0.00016784195 -0.004219605 0.0351969 -0.059089065 -0.010023016 0.0947903
-0.010226932 -0.020197893 -0.04680708 0.032374017 0.011081409 0.018276835 0.0842742 0.07784908
-0.0010500987 -0.06588707 0.0014706714 -0.012109454 -0.058628377 0.08503787 0.05972425 0.0054352204
-0.041532375 0.093513556 0.022317028 -0.001206735 0.07425781 -0.048578225 -0.00025490593 0.055038568
-0.03298799 0.0975971 0.07568326 0.0010759986 0.15839803 0.01958421 0.0021301196 -0.055462103
-0.02188323 0.04643861 0.031168558 0.17367172 -0.025299083 -0.029745515 0.15670392 -0.008089734
0.0496693 0.04866614 0.013912606 0.07838772 -0.03941405 -0.060032547 5.60117e-09 0.03753117
-0.10737344 0.039412707 -0.011630443 0.05501279 6.0988008e-05 0.023124151 0.040623292 0.09055961
-0.12694304 0.0419819 -7.887477e-05 -0.067785196 -0.06619883 -0.056807213 -0.05626722 0.0044847964
-0.009724842 -0.03291255 0.05688614 0.06239736 0.008631539 -0.05385926 0.06893002 0.02806568
-0.00042987012 -0.0981137 0.013584625 0.005268875 0.035079777 -0.0038692346 -0.035928894 -0.006491494
0.02174251 -0.12816435 -0.016962886 -0.0026629458 0.066738255 -0.029892053 0.0006498707 0.021846496
-0.041719776 0.023761604 0.14362259 0.0020510547 -0.0055882335 0.11801282 -0.001813819 0.0914009
-0.09407785 -0.09283518 0.023717098 -0.009989831 -0.032693226 0.07786592 -0.023823356 -0.03495745
-0.008571031 0.029797183 0.08442009 -0.009190924 0.037067294 -0.079255424 4.103796e-10 -0.04025855
-0.0090410225 0.0833926 -0.010483329 0.09235493 0.00011304847 0.058801085 -0.045635503 0.13303414
0.08323481 0.09474425 -0.00022942064 0.0065339888 -0.031452246 -0.036982525 -0.008973655 -0.012974404
-0.007900913 0.014558936 -0.08204311 -0.06941597 0.009425906 0.03179552 0.09562018 0.008780027
-0.00045343264 0.10517281 0.024939097 0.013031083 0.15420754 0.023781558 -0.07326302 -0.020074341
-0.007185535 0.08059349 0.04762099 -0.0018533672 0.12823536 -0.0904401 0.0005400629 -0.052146327
-0.06653027 0.053826947 -0.1285511 0.0013553781 -0.07336541 0.14272566 -0.005939741 0.08637528
-0.016339928 0.035630737 0.017322993 0.02082277 0.09670025 -0.08367793 -0.059607107 -0.0035209733
0.043699834 0.18331432 0.060396824 0.04405574 0.027625768 -0.06950637 1.8407148e-09 0.034547247
-0.08771042 -0.03914291 -0.01704565 -0.051073465 1.7682825e-05 -0.07039446 0.034358684 0.06580953
0.13413468 -0.056071404 6.8122927e-06 -0.059003502 -0.0067480286 -0.04662251 -0.0016675198 0.11225795
-0.0019216673 0.02458644 -0.119761676 0.044118214 0.010490033 0.031384043 0.09647946 -0.008378891

basic_layers.0.depthwise_convolve.bias f4 [64]
00000000: b656 0c3e 4f16 af3c 25e9 413c 5c92 343d
00000010: 0851 393d 10d3 343c 4d3d 063d 24ba e23d
00000020: 661b 943d ee45 f53d 38fd 9e3b aaa0 023d
00000030: c42a c53d 104e 03ba 97a8 3d3e a0af d53d
00000040: 8317 0a3d 87ad 923d df48 d0ba d78e 3b3d
00000050: 2405 ecb8 a8fd b9bc 7a5b 17be 5f71 c33d
00000060: efb5 103c b89a 8b3d 341f 34bb 3ccf de3d
00000070: 8e2b c5bc d48a 8d3d eca5 4f3d d142 0fbe
00000080: f33e c03d ef2f 90bd e78b f23d 6721 79bd
00000090: 3a93 1e3d ccad dabd a31f 2c3c d6ef 633d
000000a0: c740 51bd f33a 1ebc 4c0e ed3c 88b5 c73c
000000b0: 555d 5a3d a307 3ebd b18c 043d e3ed 2bbe
000000c0: d32f c73d 46a4 3d3e 4bbe ce3c af9e 133e
000000d0: 41ee a23d 1c11 3e3e 2c76 dfbb c06d 6b3a
000000e0: 9853 9abc 5c5d 0b3d 01de 203e 2442 913d
000000f0: 3c26 e63d bb3b 883d b374 fe3c d7be 973d
0.13704953 0.021372942 0.011835371 0.04408489 0.045243293 0.011036649 0.032773305 0.1107066
0.07231788 0.11976229 0.0048519634 0.031891502 0.096272975 -0.00050088856 0.18521343 0.104338884
0.03371383 0.07162004 -0.0015890858 0.04579052 -0.000112543144 -0.02270396 -0.1478099 0.09543108
0.008832439 0.0681662 -0.0027484419 0.108793706 -0.02406862 0.06911245 0.050695345 -0.13990332
0.093870066 -0.070403926 0.118430905 -0.06082287 0.038714625 -0.106776804 0.01050559 0.055648647
-0.051087167 -0.009657609 0.028937481 0.024378553 0.053311665 -0.046394 0.032360736 -0.16789965
0.097259186 0.18519697 0.025237223 0.14416002 0.079555996 0.18561214 -0.006819507 0.00089808926
-0.018838689 0.03402458 0.15709688 0.070926934 0.112377614 0.06652018 0.031061506 0.07409447

basic_layers.0.batch_norm.weight f4 [64]
00000000: d5ad 4f3f 35fc 4e3f 9e21 543f 8dd7 593f
00000010: b2c5 293f bb47 5a3f bf2f 563f 1492 5c3f
00000020: 698a 4d3f 856d 3b3f b346 413f d8b7 4b3f
00000030: 8886 423f a13a 3f3f f459 513f 7b4a 543f
00000040: 77b3 4f3f 39b9 473f f805 4c3f 5b17 513f
00000050: d001 5e3f 7dcf 513f 327e 583f 6810 593f
00000060: 679a 4f3f 8de9 5b3f ac4c 483f a653 2f3f
00000070: 6e0e 373f 8e83 553f 5a43 5e3f 8775 623f
00000080: 899e 363f ad74 203f b77f 553f 553a 443f
00000090: 23c4 603f 4f9d 563f dc8a 5c3f aa6a 633f
000000a0: d53d 3e3f 9349 4f3f f446 3e3f 993d 3c3f
000000b0: 350c 543f be93 573f c5c7 193f b485 523f
000000c0: 0b3b 573f 0ae8 3f3f aeff 613f 6069 3c3f
000000d0: d25a 623f fd2c 3d3f 2106 593f b9b8 4d3f
000000e0: aa4a 513f b3ad 5b3f 24ea 3f3f 82cb 4c3f
000000f0: 0828 5b3f 87d0 423f 59c8 5b3f eb8c 413f
0.8112462 0.8085359 0.82863796 0.8509453 0.66317284 0.852657 0.83666605 0.861604
0.8028932 0.7321399 0.75498503 0.795774 0.7598653 0.74698836 0.8177788 0.8292615
0.81133217 0.78017 0.7969661 0.8167626 0.86721516 0.81957227 0.8456756 0.8479066
0.81094974 0.85903245 0.7824199 0.6848701 0.7150639 0.8340386 0.8682152 0.8846058
0.71335655 0.62678033 0.83398 0.7665151 0.8779928 0.83833784 0.8614938 0.8883463
0.743131 0.8097164 0.74327016 0.7353149 0.82831126 0.8420981 0.6007045 0.82235265
0.8407447 0.7496344 0.8828076 0.7359829 0.8841983 0.7389677 0.84774977 0.8035999
0.81754553 0.8581192 0.74966645 0.7999803 0.8560796 0.7609944 0.8585258 0.7560565

basic_layers.0.batch_norm.bias f4 [64]
00000000: ec9d bdbc 203f babc 0f44 623c 6192 15bc
00000010: 21cd 8f3d 871b 5abc 2f14 e2bc 7f7c 44bc
00000020: addf 56bd 263d db3d ba48 803c be2f a5bd
00000030: 9ed3 dc3d 83b6 933d 826b da3c 921e aebc
00000040: 085c b0bc 40f9 d7bd 386a 01bc b5cc b4bc
00000050: 005f e5bc 46ce 9cbc 31dc a1bc d8f4 dfba
00000060: a0c2 22bd 6caf bebd 2796 adbc c297 1c3c
00000070: 83f5 9e3d a3bc 62bd 0571 e8bc 5167 543d
00000080: aadf be3d 419c b23d c10d c03c 6b8f bbba
00000090: a78d 05bc 7ae1 1abc 0350 3cbb 8355 b8bc
000000a0: 70c7 d3bc c82b 2cbd 39d1 633d c8fa 753d
000000b0: d4ca 953b d4e1 003b c89a 50bb 6979 49bd
000000c0: db33 863b b429 043e 92df 12bd 429d 8f3d
000000d0: 984e 72bd 8b0f cf3d 8307 3d3b 662a 2ebc
000000e0: 0f29 3abd da68 15be da8e 093d 8048 57bc
000000f0: b831 933c 5e01 223d 8410 86bd 6d6e 623d
-0.023146592 -0.022735178 0.013810172 -0.009129138 0.07021547 -0.013312227 -0.027597515 -0.011992573
-0.052459408 0.107050225 0.015659679 -0.08065747 0.1078255 0.07212546 0.026662592 -0.021254811
-0.021528259 -0.105455875 -0.00789886 -0.022070268 -0.027999401 -0.019141328 -0.019758316 -0.0017086519
-0.03973639 -0.09310803 -0.021189762 0.009557666 0.077616714 -0.05535568 -0.028374204 0.051856343
0.09320004 0.08721209 0.023444058 -0.001430971 -0.008151448 -0.009453172 -0.0028734214 -0.022501713
-0.025851935 -0.04203394 0.055619452 0.060053617 0.004571298 0.0019665854 -0.0031830538 -0.04918805
0.004095537 0.12906533 -0.035857745 0.070124164 -0.059156984 0.101103865 0.0028843589 -0.010630226
-0.045449313 -0.14590779 0.0335835 -0.013139844 0.017968044 0.039552085 -0.06546119 0.05528109

basic_layers.0.batch_norm.running_mean f4 [64]
00000000: 61d5 883e 0c18 293e aee8 693e b64e d23e
00000010: ff3e 023f 9820 c83e 5650 823e 9683 d53e
00000020: cbb4 853e 5bb1 0e3f a662 563e 4599 7a3e
00000030: 5c09 d03e 8850 073e b0fd 8c3e f89b 943e
00000040: 0151 813e 8c93 513e 3ab9 a63e 5249 b93e
00000050: 28d1 113e c093 833e bbac b23d 4233 813e
00000060: 3212 873e c9df 8c3e c19f 8f3e 32d4 ea3e
00000070: 0fa3 cd3e 8df5 443e 30bc 943e 4683 183e
00000080: 7460 0e3f 75b8 283e 2749 e93e dce5 a03e
00000090: 061d e63e d218 343e c7ee 7e3e 1431 b63e
000000a0: 597a 323e b05b 523e 0ecc ef3d 6480 fe3e
000000b0: 5b92 8f3e d81f 863e 8964 e53e 69c1 0d3e
000000c0: 9e0d 6b3e 05a0 253f c755 b83e 82ff 0e3f
000000d0: 81be d33e 6483 273f eb30 6e3e 1eac 2f3e
000000e0: 2b77 2b3e 9da3 663e 7b78 073f 6121 ae3e
000000f0: f439 9a3e c9d0 bb3e 137f ab3e 1797 ac3e
0.26725295 0.1651308 0.22842667 0.41075677 0.50877374 0.39087367 0.25451916 0.41701955
0.26114497 0.5573937 0.20936069 0.2447253 0.4063214 0.13214314 0.27537298 0.29025245
0.25257114 0.20466441 0.32563192 0.3618875 0.14239943 0.25698662 0.08724352 0.2523442
0.2638107 0.27514485 0.2805157 0.45865017 0.40163466 0.19234295 0.29049826 0.14893827
0.55615926 0.16476615 0.45563623 0.3142537 0.44944018 0.17587593 0.24895774 0.3558432
0.17429484 0.20542789 0.11708842 0.4970733 0.28041348 0.2619617 0.44803265 0.13843311
0.22954413 0.64697295 0.36002943 0.55858624 0.4135628 0.6543486 0.23260848 0.17155501
0.16744678 0.22523351 0.52918214 0.3400984 0.3012234 0.36682728 0.33495387 0.33709022

basic_layers.0.batch_norm.running_var f4 [64]
00000000: 0741 103f da91 9c3e b85e 023f 4003 673f
00000010: 801b 7c3e 85b3 503f 3973 983e 813d 593f
00000020: b92a 213f eaf3 6c3e 49e2 c73e d9d9 1d3f
00000030: f5d1 3f3e 547a 103e ec77 8e3e d499 1f3f
00000040: 93e6 103f 87bd 193f 8e06 153f 4379 033f
00000050: 4c21 e03e ade5 a03e 7276 883e 86c5 d53e
00000060: f2c7 2b3f 993d 4c3f 50ca 013f b9f4 233e
00000070: 946c 443e 1c3c 073f 3de8 053f fbd5 d43e
00000080: 5397 923e 505d 973d b5f6 5a3f 4a81 113f
00000090: fc37 683f 2551 aa3e 2e16 043f d1fd 093f
000000a0: 0297 ab3e 44bf 053f 81f9 433e 39f7 1b3e
000000b0: 301d 013f 2310 043f aa06 2b3e b3a1 893e
000000c0: c56e ed3e 77ec 663e 8835 663f a0e3 683e
000000d0: decd 533f a659 543e 0065 ae3e 027b b33e
000000e0: 3a90 dc3e e9c1 563f 40ca 403e eb18 063f
000000f0: b90d dc3e c3f0 253f 64dc 2b3f 355b 423e
0.56349224 0.30580026 0.5092578 0.90239334 0.24619865 0.81523925 0.29775408 0.8485947
0.62955815 0.23139921 0.3903983 0.61660534 0.18732436 0.14109164 0.27825868 0.623441
0.5660183 0.6005482 0.58213127 0.51356906 0.43775403 0.3142523 0.26652867 0.4175226
0.6710197 0.7978149 0.5069933 0.16011323 0.19182044 0.52826095 0.5230749 0.41569504
0.28631076 0.07390845 0.85532695 0.56837904 0.90710425 0.33265033 0.51596344 0.5390292
0.33513647 0.52244973 0.19138147 0.15231027 0.5043516 0.5158712 0.16701761 0.2688118
0.46373573 0.22551142 0.8992543 0.22743082 0.82736003 0.20737323 0.34061432 0.35054785
0.43078786 0.83889633 0.18827152 0.5238177 0.4297922 0.648205 0.67133164 0.18980105

basic_layers.1.spatial_convolve.weight f4 [64, 1, 5, 5]
00000000: 8df9 d5bd 7f80 0e3e 3095 cfbd b0f0 f53d
00000010: 40c9 6a3d a069 4bbd 97df 42be 4359 c3bd
00000020: 8a09 8d3d 6885 1f3e f3e8 3e3d e76a de3c
00000030: c72d dabd 0780 c13d 1aff 5ebd b20a 243e
00000040: 9833 3cbe 38e8 063e 6730 d7bc b3c7 ca3d
00000050: f7c4 2fbe 0d45 b6bd 9a64 db3d 4db6 433c
00000060: 0786 f2bd 8b56 1b3e c5d4 02be 4736 91bd
00000070: 3ddb 273e dd92 b73d 7aac dbbd 476b 6ebd
00000080: 4767 d43d af5b 10be 4d0d 8dbc f8f9 44be
00000090: 4314 0e3e edb3 07bd c079 a23d cd74 e3bc
000000a0: c0de 28bd d799 253e d027 3bbe 0d53 79bd
000000b0: 67a6 b63c 1d04 fdbd a7bd a7bc 4004 e0bd
000000c0: a758 50bd edd0 47bd 6024 0abd 8069 a43c
000000d0: 9dae 1e3e 271f d33c ea92 e83d 07f4 af3d
000000e0: b0ce 43be 4ada e53d 20a0 463d 4d88 123c
000000f0: 27bd 793d e3c2 1f3e 5034 9d3d 4019 06bd
00000100: 158d 293e e7e5 c33d 408f d43c 003e e43d
00000110: 53dc f4bd e099 b93d 2b89 053e 354f 06be
00000120: 87e6 65bd 12ca 3f3e c362 003e 87e2 a53d
00000130: 5a66 883d c73b e0bd 7339 1abe 8302 893d
00000140: 8f26 31be 5f31 053e 00d8 31ba e547 333e
00000150: 2d35 b93d 028d 373e d80d 053e 5a57 af3c
00000160: 4ac4 c83d 1a43 3ebd b86f 2cbe 67e4 3bbd
00000170: 9739 3ebe c029 ecbc 774e cebd 5328 483d
00000180: cdee 02be 1a92 8ebd bf65 073e cd2e 8e3c
00000190: df2b 28be b7c1 d03d e067 7cbd d710 8e3d
000001a0: 7d17 1b3e 0541 0a3e bdfc 923d bb70 073e
000001b0: ba3e 84bd f22b 03be 3dae 8ebd 671a b43b
000001c0: f380 e7bc c013 d63c 875d ff3d 932a ea3d
000001d0: 1066 ebbd 70e7 35be e775 973d f3c3 533d
000001e0: 477b 3a3d 6dc9 b43d da7c c73d 40e0 993c
000001f0: 33d4 d1bb 57f7 8ebd e5d2 1dbe 4517 3d3e
00000200: 9ad6 49be ff45 03be 0a6e 04be ed62 663d
00000210: 0078 16bb eb80 1d3e 270c cd3d 3a82 0bbe
00000220: 97a6 843d a77e 9cbc cd0c 9db8 addf 8fbd
00000230: 9a27 813b 4710 483e 882c 12be 27c1 6fbd
00000240: 27ff 8cbd 9aa6 6a3d 0daa d43d 60ed 8ebd
00000250: 2778 cebc d733 483e 6ff2 0d3e 1a70 483c
00000260: d3cf 073e cd9b c8bb 334f 22be 87c5 2ebd
00000270: 27cd 2cbd 3255 08be 623f 3a3e 0316 893d
00000280: d02c c8bd ada2 68bd 1ad7 20be b560 483e
00000290: dd76 cc3d 526a 283e cdff 49be b37b 393e
000002a0: 8d26 843d b7e5 d3bd 0383 b13d e265 02be
000002b0: f864 1ebe 58d7 1f3e cab1 acbd 9770 8a3d
000002c0: cd55 d03c 0a4d d2bd daa9 cabc 4a3c d8bd
000002d0: a7be 3bbe 6dc9 66bd b0cb 1ebe 7b32 27be
000002e0: d3cf b8bd 7893 0ebe 557d 213e 6a1a 4a3e
000002f0: 00f0 c03b b310 443c 97da f33d c04a c6bc
00000300: 1dd6 403e 6009 c8bd 25a3 2e3e 9a8b 42bd
00000310: 3352 de3d e769 64bd b3b5 c3bc 8ace cd3d
00000320: 67ad 4cbc 9a80 8e3d cd0f 95bb a703 95bd
00000330: 9ad8 26bd a03a 51bd cdc6 fc3d 231c 3b3e
00000340: c000 97bd 90cf 283e 136b 173d 676d d6bc
00000350: 9573 27be a723 a93c 6d2e 38be 67e2 2e3e
00000360: 4dc5 26bd e7f8 bdbc 9317 b23d 5529 3d3e
00000370: e05f 053d 9bb0 03be c045 ee3c 75db 2d3e
00000380: 6041 f83d 7a1c e3bd efc0 213e e748 a13c
00000390: e0df a23d c832 103e f3e0 36be d093 d43d
000003a0: d33b ff3d 2750 90bc 6372 ff3d e24f 48be
000003b0: 8a60 8fbd 531c c7bd e7ed 5abc 0057 203d
000003c0: 2d31 22be 9aa2 0f3d 73da e33d 8f33 47be
000003d0: 1b8e 4a3e 2535 073e e7b9 343c 003a 563b
000003e0: cb22 12be 6037 c23d d3c0 fd3d 0db4 7c3d
000003f0: f33b 913d 3303 613a b34e 3d3e 5a65 113d
-0.10447989 0.13916205 -0.10135877 0.12008798 0.057320833 -0.04966128 -0.19030605 -0.0953851
0.06886585 0.15578234 0.046608876 0.027150584 -0.106532626 0.094482474 -0.054442503 0.16019705
-0.18379056 0.13174522 -0.026268197 0.09901371 -0.1716498 -0.08899889 0.107125476 0.011945319
-0.1184197 0.15169732 -0.12776478 -0.07090431 0.16392227 0.08963559 -0.10726257 -0.058207776
0.10371261 -0.14097475 -0.017218256 -0.1923598 0.13874917 -0.033130575 0.07933378 -0.027765656
-0.041228056 0.16171966 -0.18276906 -0.06087022 0.022296144 -0.123543 -0.020476175 -0.109383106
-0.050865795 -0.04878323 -0.033726096 0.020069838 0.15496297 0.02577169 0.11356147 0.085914664
-0.19121814 0.11223276 0.04849255 0.008943629 0.060971405 0.15601687 0.076759934 -0.032738924
0.16557725 0.09565335 0.025947213 0.11144638 -0.11956086 0.090625525 0.13040607 -0.13116153
-0.05612805 0.18729427 0.12537675 0.08099847 0.06660147 -0.109489016 -0.15060978 0.06689932
-0.17299865 0.13007115 -0.00067842007 0.17507894 0.090433456 0.17924884 0.12993562 0.021403957
0.09803064 -0.04645071 -0.16839492 -0.04587212 -0.18576656 -0.028828502 -0.1007356 0.04886658
-0.12786408 -0.069614604 0.13222407 0.0173563 -0.16422985 0.10193198 -0.0616225 0.06936806
0.15145679 0.13501365 0.07177112 0.13226597 -0.06457277 -0.12809733 -0.06966827 0.0054963115
-0.02825973 0.026132464 0.12469011 0.11433902 -0.11494076 -0.17764068 0.07395535 0.051700544
0.045527723 0.088274814 0.097406104 0.018783689 -0.00640347 -0.0698077 -0.15412481 0.18465908
-0.1971077 -0.1281967 -0.12932602 0.056246687 -0.002295971 0.1538121 0.100120835 -0.13623896
0.06477087 -0.019103361 -7.488728e-05 -0.07025085 0.0039414885 0.1953746 -0.142748 -0.058533814
-0.06884604 0.05728779 0.10383997 -0.069788694 -0.025203777 0.19551025 0.13862012 0.012233758
0.13262872 -0.0061220885 -0.15850525 -0.042668846 -0.042187836 -0.1331375 0.18188241 0.066936515
-0.09774172 -0.056795765 -0.15707055 0.19568141 0.09983609 0.16446808 -0.19726487 0.18113594
0.064526655 -0.10346549 0.086675666 -0.12734178 -0.15468204 0.15609491 -0.08432348 0.06759756
0.025431538 -0.102686 -0.024739195 -0.10558374 -0.18334447 -0.05634444 -0.15507388 -0.1632785
-0.09024014 -0.13923442 0.15770467 0.19736639 0.005887985 0.011966872 0.11906927 -0.024205565
0.18831678 -0.09767413 0.17054422 -0.047496416 0.10855522 -0.05576506 -0.023890352 0.1004916
-0.012492514 0.069581226 -0.0045490027 -0.07276087 -0.04073391 -0.0510813 0.12342606 0.18272452
-0.0737319 0.16485429 0.03696735 -0.026175214 -0.16352685 0.020646883 -0.1798646 0.17078553
-0.040715504 -0.023189975 0.08695903 0.18472798 0.032562137 -0.12860338 0.029085994 0.16978247
0.12121844 -0.11089416 0.15796255 0.019688083 0.07952857 0.14081872 -0.17859249 0.103797555
0.124625824 -0.017616345 0.124729894 -0.19561723 -0.07000835 -0.09722199 -0.013362384 0.03914547
-0.15839072 0.03506718 0.1112565 -0.19453262 0.19780771 0.13203867 0.011030651 0.003268838
-0.14271085 0.09483218 0.12390294 0.061695147 0.070915125 0.00085835456 0.18487053 0.035497047

basic_layers.1.spatial_convolve.bias f4 [64]
00000000: 77df 9cbd 0d0d bbbd 1869 4abe 4a12 0ebe
00000010: a3d2 313e aaed 1abe aa32 29be 0042 c4bb
00000020: 3fae 293e a74f 703d 3313 0ebb e079 6ebd
00000030: 8019 bfbd 3dfb 22be 9af0 a93d 536d 4dbd
00000040: 0df7 853d 3359 883c 706b 27be 2009 14bd
00000050: 2ddc f13d 33b3 5c3c 43db b73d 5faf 1f3e
00000060: a860 24be ba91 38be 730b 11be 2781 ef3d
00000070: 0de0 fe3c 2d1f 14bd 876c b83d 8d7f 8e3d
00000080: a7ed 793d bd30 b33d 785b 08be b36f 5b3d
00000090: 13ae 513d 30b1 a5bd f331 3cbe 5dfd abbd
000000a0: 1767 e33d 2dae 3bbe 80a8 bbbc 7de0 07be
000000b0: 3a6b e9bd f362 cbbc 48e8 12be 5792 873d
000000c0: f0b2 333e e3e6 043e 9a4b ab3c d77e 91bd
000000d0: 65c7 3c3e cdcd 493e 03e3 1fbe 4dc6 ecbc
000000e0: dbfd 32be 688c 483e 3da2 85bd da76 cd3c
000000f0: 90f9 283e b7bf c13d c058 d43d 4895 38be
-0.0765981 -0.091333486 -0.19766653 -0.13874164 0.17365508 -0.15129724 -0.16523233 -0.005989313
0.16570376 0.058669712 -0.0021678924 -0.058221698 -0.093310356 -0.15916152 0.08297844 -0.050153088
0.06541262 0.016644096 -0.16349578 -0.036141515 0.11809573 0.013470459 0.08977368 0.15594243
-0.16052496 -0.1802434 -0.14164524 0.11694556 0.031112695 -0.036162544 0.09005075 0.06957922
0.06101766 0.087495305 -0.13316143 0.05357332 0.0511914 -0.080904365 -0.18378429 -0.083979346
0.11103647 -0.18328162 -0.022907495 -0.13269229 -0.11397405 -0.024827456 -0.14346421 0.06619709
0.17548728 0.12978701 0.020910073 -0.07104271 0.18435438 0.19707413 -0.15613942 -0.02890315
-0.1747965 0.1958481 -0.06525085 0.025081087 0.1650145 0.09460395 0.1036849 -0.18025696

basic_layers.1.depthwise_convolve.weight f4 [64, 64, 1, 1]
00000000: 31e5 833d 3e43 513d 2267 813c d6d4 88bd
00000010: 7e8b a93b bf26 083e 7611 8b3d f75c 173b
00000020: b675 ddbd b1fa 583d 730e 9cbd 9315 49bd
00000030: 2fb7 babd 51c7 943d 981f 053d bd62 6b3d
00000040: e52a 26bc 22ad 523d 0996 f63c 204a a2bb
00000050: 70fa 843d 1fcb 5bbc dd15 d2bc 6db4 b03c
00000060: b81f 8dbd 3a2b b8bd b2f3 f0bc 45c5 c1bd
00000070: 711c 723b d4c4 8cbd 11a5 993d 4619 813c
00000080: 84dd e93a 3f4b 8d3b a46c 423d 11a0 4d3d
00000090: f5f4 fb3d 4645 ee3d 447d db3d ec3f 3d3c
000000a0: e9f6 bdbb 7337 79bd 5acd 41bd f137 a8bd
000000b0: 9444 d83c e89e ff3d fcc8 7bbc 7cf0 43bd
000000c0: 18eb d03d 7a11 d1bc 6aff 913d 8374 27bc
000000d0: d6c8 f83d a487 e4bc f45a 9ebd 43d5 c83c
000000e0: e17d 9b3d 0248 ffbd e190 0ebe 4ce8 5ebd
000000f0: 4983 e6bd 2488 fe3d 09f8 1f3d ef6e f23c
00000100: 3f8b 8abd b9d9 9fbc 1135 a83d a5c7 553d
00000110: 031c 9e3c 2a3f b93d 2bad 093e f664 e33d
00000120: 2341 f0bd 6834 cabd 7bfb b8bd b3d4 f83c
00000130: 1763 99bc 5f7d cd3d 8c7f 11bd bf17 d3bc
00000140: 02cc 99bd 9fef bdbc e046 9f3c f8da cd3d
00000150: 4607 5b3c a348 65bd 22d0 4f3d 4d87 4d3d
00000160: 7f9d fe3c 706d 02bd de85 c63d b1c3 a0bd
00000170: 2828 a9bb f470 59bd 791f bcbb 7083 abba
00000180: b02d 453c cf97 61bd 36f6 dcbc ed0a 2b3d
00000190: 70d5 4e3d 89c3 f43d fbaf bcbc 449d b93d
000001a0: c91a 86bd 9bd5 273d 1495 943c d29e 1b3d
000001b0: 8174 ba3d 1c49 f43d bf0c 7fbd 897d b33c
000001c0: 3803 a93d b813 303d 79f4 3a3d 5c25 b03c
000001d0: d3e5 b13d 2994 2f3d dcd2 033e 46e8 8c3d
000001e0: fdf6 6c3d 274d 363d dccf dabd 4e13 acbc
000001f0: 2266 e4bd 8f3e 703d c1e7 1f3e d72f d43c
00000200: 4b0c ef3d 745f 1c3d 55ce b13d 304e dbbd
00000210: 694d 26bc 4d48 503d 9460 48bd 8d67 84bc
00000220: 9625 3d3d 4060 463d a787 ba3d 9374 3dbc
00000230: 5001 5abc d939 71bc 284e 683c 7bd5 b33d
00000240: 93b8 13bd 576d c63c 9f03 7abd 4487 8dbc
00000250: 27f3 d73d 5ee1 0a3c dfb0 e03c 990a acbc
00000260: 6e1b 433d 2698 0e3d 87ab db3b 89f6 0b3d
00000270: 9f02 91bc cc32 e43d be82 b63c af20 153d
00000280: 9943 56bd f613 5a3d 02c4 873c 403a 883c
00000290: e110 9fbd fa6b 883b 6b8f bdbd 92a0 45bd
000002a0: 0f6a 143e 2370 f53d 637c bb3d b523 973c
000002b0: 478b 243d 8cf2 b9bd ec76 6fbd 077f 80bc
000002c0: c7af 2a3d ee43 70bd 6e1b d6bc b07c a5bc
000002d0: 7e89 46bd 9e78 cabd c919 5abd 7b1d 5f3d
000002e0: e3f1 f5bc e45a db3d 5f79 9ebc b11e 6cbb
000002f0: 8f4c ab3a a506 82bc 845c 5f3a 2758 2c3c
00000300: 51ab 2b3d c9df 5c3d 1fa6 11bc 60b8 bf3c
00000310: 9c04 98bd a258 77bd 5d20 38bd 34f4 80bd
00000320: bcbc 09bd 1b7e 703c f6bb 54bd 12ff a03d
00000330: 566c 413d 696d 7a3d 169a 623d ba31 86bb
00000340: 5414 3abd 4001 ea3d 145e 38bc 486a 9ebd
00000350: c0a3 f33c 8b0e 86bd 362a 143d ac45 b73d
00000360: 5064 7a3d 5b5d a83d d6d7 71bc 848a 8d3c
00000370: f1f3 9ebd d73d 0c3e 10bf 903d df22 023e
00000380: 6c55 51bd babb 123d e033 9cbd 9320 c4bd
00000390: 8050 99bd 544f ea3c bc2e 69bc 6cb5 46bd
000003a0: 98f6 d6bb 99df cebc 3136 4e3d e118 6c3d
000003b0: ec11 d8bc 43a6 fdbd d028 b8bd 0242 dd3c
000003c0: e270 17bc b844 9cbd 0cc8 5dbd 73fa 8dbc
000003d0: de6d 0a3c baea cdbd 02d1 4f3c 4090 d83d
000003e0: af8c 7f3d a0e9 013e 99d4 edbc 0c1f 883b
000003f0: cca7 d73d 1fca acbb 9a71 45bd a07f 003e
0.06440199 0.051089518 0.015796248 -0.0668122 0.0051740995 0.1329603 0.0679044 0.0023096183
-0.10813467 0.052973453 -0.076199435 -0.04909284 -0.09116971 0.07264579 0.032500833 0.05746721
-0.010142063 0.051434644 0.03010084 -0.004952684 0.0649308 -0.013415127 -0.02564519 0.021570409
-0.068908155 -0.0899262 -0.029413078 -0.09461454 0.0036943222 -0.068734795 0.07502187 0.015759122
0.0017842506 0.0043119485 0.04746689 0.05020148 0.12302581 0.116343066 0.10717252 0.011550885
-0.0057972562 -0.060843896 -0.04731498 -0.08213795 0.026399888 0.12481481 -0.015367743 -0.047836766
0.102010906 -0.025521029 0.071287945 -0.01022065 0.121476814 -0.02789671 -0.07732192 0.024515754
0.07592369 -0.12464906 -0.13922454 -0.054420754 -0.112555094 0.124283105 0.039054904 0.029593913
-0.0676484 -0.019512998 0.082132466 0.05219235 0.019300466 0.09045251 0.13444965 0.11103241
-0.11731174 -0.09873277 -0.09032341 0.03037486 -0.018724008 0.10033678 -0.03552203 -0.025768159
-0.075096145 -0.02318555 0.019442976 0.100515306 0.013368433 -0.055977475 0.0507356 0.05017786
0.03108096 -0.03184265 0.09693502 -0.07849825 -0.0051622577 -0.053086236 -0.0057410565 -0.0013085436
0.0120348185 -0.055076417 -0.026972871 0.041758467 0.05049652 0.11951358 -0.023033133 0.09063199
-0.065480776 0.040975194 0.018137492 0.03799326 0.091042526 0.11928007 -0.062268015 0.021910446
0.08252567 0.042987555 0.045643304 0.02150219 0.086864136 0.042865906 0.12873405 0.0688024
0.057852734 0.044507172 -0.10684177 -0.021005299 -0.11152293 0.05865341 0.15615751 0.025901718
0.116722666 0.03817697 0.08681933 -0.107082725 -0.010150292 0.0508502 -0.04892023 -0.016162658
0.046178423 0.048431635 0.09107905 -0.011563438 -0.013305977 -0.014723265 0.01417879 0.087809525
-0.036064696 0.02422206 -0.06103861 -0.017276414 0.105444245 0.008476583 0.027428089 -0.021001147
0.04763358 0.03481307 0.0067037973 0.03417066 -0.017701445 0.11142501 0.02227914 0.036408123
-0.05231056 0.053241692 0.016572956 0.016629338 -0.07766891 0.0041632624 -0.092558704 -0.048248835
0.14493583 0.11984279 0.09154584 0.018449644 0.040171888 -0.09079465 -0.058463022 -0.015685571
0.04167154 -0.058658533 -0.026136126 -0.020201057 -0.048470967 -0.09886287 -0.053247247 0.054471474
-0.030022567 0.107106954 -0.019344984 -0.0036029036 0.0013069081 -0.015872309 0.0008520561 0.010519064
0.041911427 0.053924356 -0.008889704 0.023403347 -0.07422754 -0.06038726 -0.04495274 -0.06296578
-0.033627257 0.014678503 -0.051937066 0.07861151 0.047222458 0.061139498 0.05532273 -0.0040952833
-0.045429543 0.1142602 -0.011252899 -0.07735115 0.029741168 -0.065457426 0.036173068 0.08948836
0.06113082 0.08220931 -0.014760932 0.017277963 -0.07761372 0.13695465 0.07067692 0.12708615
-0.051106855 0.03582356 -0.07627082 -0.095765255 -0.07486057 0.02860228 -0.014232334 -0.04851286
-0.006560158 -0.025253104 0.05034465 0.057640914 -0.026375733 -0.123852275 -0.08992159 0.027009014
-0.009243222 -0.076302946 -0.054145858 -0.017331338 0.008449046 -0.10054536 0.012684109 0.105743885
0.062390026 0.12686777 -0.029032039 0.0041540917 0.105300516 -0.005273118 -0.048204042 0.12548685
